BonusTask/quantized_tts_model.tflite (tflite, 78136 bytes, 6 tensors)

arith.constant f4 [256]
000000 34 8c 4c bb b7 1a 28 3c 84 7b 14 3c d3 1e 31 bc
       -0.0031211497 0.010260276 0.009062652 -0.010810572
000010 4f b9 2f 3b f1 55 4d bc 0a 60 f1 bb af 16 1b 3b
       0.0026813333 -0.012532697 -0.007366185 0.0023664644
000020 ac 13 2f 3c bd f3 b1 bb 5c 58 c7 bb bf 2a 84 bb
       0.0106858425 -0.005430667 -0.0060835313 -0.004033416
000030 e2 94 51 bc 4a f8 ab ba 1d f3 e0 bb 4e 5e 00 3b
       -0.012791844 -0.001312026 -0.006864919 0.001958746
000040 57 66 f3 bb 66 cd d6 bb 50 76 6e 37 5f 37 93 3b
       -0.0074279713 -0.006555247 1.4213452e-05 0.0044926847
000050 cf 9e 8c ba 63 73 29 bb 4a 8b 13 bc 00 4f a3 3b
       -0.0010728481 -0.002585613 -0.009005377 0.004983783
000060 71 33 d9 bb 98 db 9e bb 2b 47 39 bc 8f b4 08 bc
       -0.0066284467 -0.004847955 -0.011308472 -0.00834383
000070 55 4b 39 bc 92 4f 0b 3c c1 fd be bb 02 24 3c 3b
       -0.011309464 0.008502858 -0.0058285897 0.0028707986
000080 8e 11 3f bb 93 0f 0c bc 9f 99 6c 3b 2a d5 5c bc
       -0.002915475 -0.008548635 0.0036102307 -0.013478557
000090 db 41 61 bb 2b ab df bb c4 29 92 3a b8 16 42 3b
       -0.0034371528 -0.0068258247 0.0011151363 0.0029615592
0000a0 d9 1e 68 bc b5 e7 0c bc e6 17 29 bc ff df 05 3c
       -0.014167511 -0.008600165 -0.010320639 0.008171081
0000b0 5a a3 2f bb cd 6e 3f bc 14 5a 77 bc 3d be 27 bc
       -0.0026800246 -0.011684132 -0.01509716 -0.010238227
0000c0 94 37 83 bc e8 2a 37 3b 88 1d c4 3b 50 f1 07 bc
       -0.016017713 0.0027949158 0.0059849657 -0.0082972795
0000d0 03 91 1b 3c 1b a5 42 3c 2d 95 e0 3b 8d 2d 17 3c
       0.009495023 0.0118801845 0.0068537206 0.009227169
0000e0 ae 69 db bb 22 62 ea bb 09 8c 5d bc de 77 dc ba
       -0.0066959476 -0.0071528116 -0.0135221565 -0.0016820391
0000f0 02 6d 94 3b c3 e5 04 3c d0 45 61 bb 61 f4 8c bb
       0.0045295963 0.00811142 -0.0034373887 -0.004301593
000100 26 e8 d7 bb 42 67 14 bc de d5 8f 3b b2 d9 1d bc
       -0.0065889535 -0.009057822 0.0043895086 -0.009634422
000110 03 fb f4 bb 98 d6 84 bc fc 3b 1c bc e3 4d e1 bb
       -0.007476212 -0.016215608 -0.009535786 -0.00687574
000120 00 00 00 00 14 8f c4 3a 0e 31 9d 3b fe 09 0b ba
       0.0 0.0014996254 0.0047971075 -0.0005303918
000130 67 82 9a 3b c0 0c 28 bc aa 20 34 bb 73 8c 41 bb
       0.004715252 -0.010256946 -0.002748529 -0.0029533177
000140 2b 81 85 ba a5 82 0b bc d6 88 37 bc 26 e7 94 bb
       -0.001018559 -0.008515035 -0.011202058 -0.0045441566
000150 19 93 14 3c 4b 22 21 bc 5a 3e 61 bc 00 00 00 00
       0.009068274 -0.009834836 -0.013747776 0.0
000160 74 ff 00 3b a2 aa 22 bc 35 c7 a7 3a 51 4e 86 3b
       0.0019683512 -0.009928377 0.0012800457 0.0040986915
000170 de 7d ae 3b 0c a2 a2 3b 9a 91 d8 b9 65 c0 f9 3a
       0.005325063 0.004963165 -0.00041307212 0.001905453
000180 31 c1 61 bb 92 d8 27 3c 93 37 5b bc 64 8a 36 bc
       -0.0034447426 0.0102445055 -0.013379949 -0.011141393
000190 20 c4 06 bc 24 64 d2 ba 82 1b de 3b 8e a5 16 bc
       -0.008225471 -0.0016051573 0.0067781815 -0.009194745
0001a0 0a 12 33 bc d6 19 c1 3b b4 b2 13 bc 11 5f 92 3b
       -0.010929594 0.0058929725 -0.009014774 0.004466899
0001b0 57 de 17 ba a2 2a 29 bc 20 e8 be ba 85 d9 20 bc
       -0.0005793324 -0.010325106 -0.0014565028 -0.009817486
0001c0 5a bc a4 bc 16 ac 85 3b a3 e1 7c ba a5 3e 04 bb
       -0.020109344 0.004079352 -0.00096466596 -0.002017894
0001d0 1d e8 63 3a b0 aa 96 3b 27 36 02 bc a6 7e 45 3a
       0.00086939504 0.0045979843 -0.007947481 0.00075338257
0001e0 79 65 93 3b 28 20 3d bc 3b 4a 03 3c ed e4 30 3b
       0.0044981805 -0.011543311 0.008013303 0.002699192
0001f0 bf 77 f1 bb 36 f1 96 3b 34 40 a3 bb 98 ac a0 bb
       -0.007369011 0.0046063913 -0.004982019 -0.0049033873
000200 3c e9 9a bb 28 78 1b bb 8f e6 e2 3b 00 00 00 00
       -0.0047275107 -0.0023722742 0.0069244574 0.0
000210 ea 51 18 3a 56 02 68 bb 62 b1 01 bc a8 41 4e bc
       0.0005810546 -0.0035401783 -0.0079158265 -0.012588896
000220 3d 4d 4f 3b 3a 75 d7 ba 76 4b 83 3b 80 62 77 3a
       0.003163173 -0.0016438134 0.0040067984 0.000943698
000230 90 a5 a8 bc 61 f4 1f bc b8 2d e5 bb 84 41 29 bc
       -0.020586759 -0.009762854 -0.0069939755 -0.010330562
000240 b0 d0 ba 37 f9 47 16 3c c3 18 00 bb b6 7b 39 bc
       2.2270106e-05 0.009172433 -0.001954601 -0.011320999
000250 35 0f de ba 96 9f 58 bb 0a 75 4d bc 00 00 00 00
       -0.0016941788 -0.0033054105 -0.012540111 0.0
000260 de 9a dd 3b 01 12 f7 bb 8b 04 04 3b 2e c5 4a 3c
       0.0067628464 -0.007539988 0.002014431 0.012376113
000270 2a d1 82 bb f2 b5 44 bc 73 e7 80 bc 2e 9c 6a bc
       -0.0039922195 -0.01200627 -0.015735364 -0.014319463
000280 23 d7 93 bb 56 28 1a bc ef 8a af 3b f9 0f 46 bb
       -0.0045117303 -0.009409031 0.0053571383 -0.0030221923
000290 54 2b 9f bb 86 df f0 3b cb 67 71 bb 73 1f 42 bc
       -0.00485746 0.007350865 -0.0036835547 -0.011848318
0002a0 ef bb 88 bb a4 b0 1c 3c 06 10 00 bb 8c 6e 95 bb
       -0.004172794 0.009563599 -0.00195408 -0.0045602974
0002b0 5a 7a 80 bb 70 7e 03 bc f7 a6 21 bc 7e 99 3a bb
       -0.0039208354 -0.0080257505 -0.009866468 -0.0028472836
0002c0 0b 3e 81 bb 7a 0f 20 bc 2d d7 c3 3b 6e 9c 31 bb
       -0.0039441637 -0.009769315 0.0059765787 -0.0027101296
0002d0 9c f5 be 3b 01 2e 2b bc a3 a0 d2 3b 45 56 5e 3a
       0.0058276188 -0.01044798 0.006427841 0.0008481483
0002e0 7e 5a ee 3b 55 58 95 bb a4 e1 0b bc 66 55 85 bb
       0.007273971 -0.004557649 -0.008537684 -0.004069018
0002f0 48 8f 61 bc 64 85 76 bc 50 96 b1 bb 00 00 00 00
       -0.013767071 -0.015046451 -0.00541953 0.0
000300 1e 3f 17 bc 7c fc 86 bc 62 02 5f bb 56 d8 cf bb
       -0.009231357 -0.016477816 -0.003402852 -0.006342928
000310 40 c3 6f bb d4 2c d2 bb ef 7d ff bb a8 57 95 bb
       -0.0036584884 -0.0064140353 -0.007796995 -0.0045575686
000320 bc 1f 15 bc a2 68 1f bc 1c 56 14 bc d4 9f c7 3a
       -0.009101804 -0.009729536 -0.009053733 0.0015230128
000330 ee 3f 7b bc 15 90 7f bc 9a 39 c5 3b 44 7d 62 3a
       -0.015335066 -0.015598317 0.0060188295 0.0008639882
000340 34 be 05 bb b2 1b c3 bb be de 98 bc 3b af cc 39
       -0.002040756 -0.0059542293 -0.0186609 0.0003904047
000350 e9 6f 7a bb 80 b6 10 bb 9e 41 db bb a5 2b bb 3b
       -0.0038213676 -0.0022081435 -0.006691172 0.00571199
000360 86 cf 00 3c c2 cb 7d bb ab 04 9d bb 31 4d b6 3a
       0.007861977 -0.0038726185 -0.004791816 0.0013908503
000370 1f 28 54 3a 59 71 28 bb 15 09 24 bc b7 e8 35 3b
       0.0008093137 -0.0025702326 -0.010011931 0.0027757117
000380 bb 87 f9 bb 72 38 a7 bb ce 2f 77 bb 97 c6 8f 3b
       -0.0076150573 -0.0051031644 -0.0037717703 0.0043876874
000390 38 3e 47 3b e8 ed 99 bb 22 13 fc ba b2 3d f5 bb
       0.0030402075 -0.00469755 -0.0019231776 -0.0074841613
0003a0 59 11 a2 3b 9d 09 1f 3c 47 69 d6 bb 35 60 dc bb
       0.0049459157 0.009706882 -0.0065433118 -0.006725336
0003b0 36 1e af bb d3 05 a6 3b c8 cd 1a 3b 87 51 96 3b
       -0.0053441776 0.0050666123 0.002362119 0.0045873555
0003c0 57 6b e1 3b 49 d4 29 bc 24 dd d8 bb 1a 97 25 bb
       0.006879251 -0.010365554 -0.006618159 -0.0025267066
0003d0 78 5b e3 bb 90 e1 e6 3b 1b 52 e3 ba 6c 37 95 bb
       -0.006938394 0.007045932 -0.0017343195 -0.004553726
0003e0 8b f9 de 3b 3e 8e aa bb c9 f1 ec bb 7b a3 a6 bb
       0.00680465 -0.005204945 -0.0072309715 -0.0050854064
0003f0 6b 98 07 bb a3 75 af bb 17 a6 e5 bb 7b c6 fd 3b
       -0.0020690213 -0.0053545996 -0.007008325 0.007744608

arith.constant1 f4 [80]
000000 95 dd a0 3c 22 1d 74 3b 0e 50 0f bc 0f 0c a6 bc
       0.019636909 0.003724881 -0.008747114 -0.020269422
000010 3b 59 07 3c 62 81 1a bb ea 44 46 3c c8 f6 20 3c
       0.00826102 -0.0023575653 0.012101391 0.009824462
000020 dd 34 88 3c e6 ea 2d 3a a9 73 8c bc 50 98 8c 3c
       0.01662677 0.0006634429 -0.017144995 0.017162472
000030 03 ad a2 bc 19 28 9d 3b 58 38 8e bc 0c 28 ee 3c
       -0.019857889 0.00479604 -0.017360851 0.02907183
000040 39 94 b7 bc a9 42 15 3c c4 e8 e9 3c e7 1c af bb
       -0.022409545 0.009110131 0.028553374 -0.0053440216
000050 62 14 93 bc e9 65 ca bb ea d9 a5 ba a8 07 76 3b
       -0.017954055 -0.0061766994 -0.0012653444 0.0037541185
000060 c7 ac 5c 3c 11 4d a2 bc f0 51 0a bc a7 ef 43 b9
       0.013468928 -0.019812139 -0.008442387 -0.00018685927
000070 4e 9a c1 3c 75 8c 8d bb 0c c3 8d 3c 5b 68 95 bc
       0.023633149 -0.0043197223 0.01730492 -0.018238237
000080 b3 eb 73 bc dd 9d 63 3c 9a a3 14 bc da 3c 10 bc
       -0.014887738 0.013892618 -0.009072209 -0.008803571
000090 98 eb 41 bb a0 66 e4 3b fe 4e 15 bd 98 46 2d 3c
       -0.0029589888 0.0069702417 -0.036452286 0.010575913
0000a0 ab 6a 0a bc 8b 16 be 3c c6 77 48 bc b8 62 06 bd
       -0.008448283 0.023204109 -0.012235587 -0.03280899
0000b0 fc d8 d6 3c 16 83 b7 bb b4 a2 0a 3c 50 60 c6 3c
       0.026226513 -0.0056003435 0.008461643 0.024215847
0000c0 e2 11 a1 3b 02 44 a2 bb a6 ed 4a 3c 74 a3 1f bc
       0.004915462 -0.004951955 0.012385761 -0.00974356
0000d0 ea ef 49 bc 1f 6f 19 bc 34 be 5b 3c d2 b3 ec bb
       -0.012325266 -0.009364872 0.013412047 -0.0072235847
0000e0 0f 66 61 bb e5 70 c3 3c 95 6e 9e 3c a9 44 0b bb
       -0.0034393107 0.023857543 0.019339839 -0.0021250641
0000f0 40 41 cd bb 0e 49 a2 bc 1b 98 20 ba c4 b7 48 3b
       -0.006263882 -0.019810226 -0.0006126181 0.003062711
000100 bd 86 28 3c 4e bc 1c bb 99 89 bb 3c 15 09 d5 bb
       0.01028603 -0.002391595 0.02289276 -0.006501327
000110 a3 63 53 3b b9 11 47 bc d0 4b c3 bb 8d 30 5e bc
       0.0032255433 -0.0121502215 -0.0059599653 -0.01356138
000120 d5 3d 1a 3c da 3e f7 3b 20 7e 87 3c c4 45 0c bc
       0.009414156 0.0075453343 0.016539633 -0.008561555
000130 4e 40 b4 3c 28 aa 5d 3b 17 70 3d bc 61 7f 21 3c
       0.02200332 0.0033823345 -0.011562369 0.00985703

arith.constant2 f4 [128]
000000 66 e1 4c bc b5 44 44 bc 48 c0 25 bc 97 aa 5c bc
       -0.012504911 -0.011979272 -0.010116644 -0.013468406
000010 c1 97 6e bb f7 4d 75 ba 77 e0 07 bc 97 61 a2 bb
       -0.003640637 -0.0009357626 -0.008293263 -0.0049554813
000020 60 08 90 3a d3 16 a4 bb 0f 54 3f 3b 1c ab 3f bc
       0.0010988824 -0.0050076037 0.002919439 -0.0116985105
000030 ac e7 a0 bb d5 90 7e ba 93 7a 7f bb 39 92 0b ba
       -0.00491043 -0.0009710913 -0.0038982972 -0.0005324218
000040 f0 04 ed bb ea e5 42 bc be b1 3d bc 00 00 00 00
       -0.0072332546 -0.011895636 -0.011578022 0.0
000050 db cd 0b bc 79 69 71 bb 6b 3b fa bb ae 27 f8 ba
       -0.0085329665 -0.0036836548 -0.0076364777 -0.0018932724
000060 d9 42 97 bc f8 54 4e bc 75 23 f7 bb c0 35 95 3a
       -0.018464493 -0.0125935 -0.0075420686 0.0011383817
000070 ed 68 a8 3b 1c 54 a8 ba 4c 62 65 3b 80 ad 08 bc
       0.0051394613 -0.0012842449 0.0035001216 -0.008342147
000080 46 b5 ff bb 74 2e a7 3a f7 6f 59 bc 5d 84 f2 ba
       -0.007803592 0.0012754933 -0.013271323 -0.0018502582
000090 ab e8 c2 3a 34 bb e5 bb 29 da 0b bc c4 8a 3d bc
       0.0014870366 -0.0070108417 -0.0085359 -0.011568729
0000a0 16 3d 5e 3a d2 dd 29 bc fa f5 b1 bb 67 d9 04 bc
       0.00084777304 -0.0103678275 -0.005430934 -0.008108473
0000b0 7e 0b 00 bc 6c 4c 88 bc 39 20 1a 3b ec a0 c1 bb
       -0.00781524 -0.016638003 0.0023517741 -0.005909076
0000c0 d0 32 f9 ba e3 9f 98 3b 9d 75 83 bc 02 6b 2d bc
       -0.0019012336 0.004657732 -0.016047293 -0.010584595
0000d0 9d 03 a1 3a 4a 36 36 bb f6 16 19 bc 36 28 cf bb
       0.0012284402 -0.0027803355 -0.009343853 -0.006321932
0000e0 01 69 99 bc e4 66 8a bb fc 5a 6f bc 50 26 26 bb
       -0.018726828 -0.0042236913 -0.014609095 -0.0025352426
0000f0 c0 7f 0e 3c 50 79 64 bc d8 97 cb bb 42 82 91 3c
       0.00869745 -0.013944939 -0.0062131695 0.017762307
000100 6d b0 2b bc b0 cf 21 3b 9a 37 23 bc 78 81 9b bb
       -0.010479075 0.0024690442 -0.009961987 -0.0047456585
000110 33 34 5b bc f1 59 ba bb 3a d1 03 ba da e4 f1 bb
       -0.0133791445 -0.0056869914 -0.00050284306 -0.0073820176
000120 1e e9 f5 bb 16 a6 2d bc c0 0f 1d bb 0b 0a 3f bc
       -0.0075045964 -0.01059868 -0.0023965687 -0.011660109
000130 22 1d 95 bc fa f9 ba 3a 20 b9 0b bc 3c 94 b9 3a
       -0.018202368 0.0014265173 -0.008528024 0.0014158557
000140 97 b4 23 bc 76 9b 68 bb 5d d8 9f bb 52 89 0f 39
       -0.009991786 -0.0035493053 -0.0048780874 0.00013688699
000150 23 e3 52 bb 13 f7 ee bb bb 3b 90 bb 0e 03 09 bc
       -0.003217884 -0.007292637 -0.0044016517 -0.008362545
000160 7c aa 10 bc 18 e2 7a ba f5 d6 04 bc f8 92 9b bb
       -0.008829709 -0.0009570434 -0.00810789 -0.0047477446
000170 a2 ff 59 3b 57 06 63 bb 0f 1f 53 bc 77 62 31 bc
       0.0033263941 -0.003464123 -0.012885823 -0.0108266985
000180 1b 0b d9 bb 20 58 59 bc 2a 90 23 3b 5d d7 47 bc
       -0.0066236383 -0.01326564 0.0024957755 -0.012197343
000190 9e 4e 60 3b 94 b5 ef bb af 0e 18 3a 5e 1d 31 bc
       0.0034226547 -0.007315347 0.0005800528 -0.010810224
0001a0 ad ec a9 bb f7 0d 00 bc e5 f4 c0 bb c4 35 7a bb
       -0.0051856847 -0.0078158295 -0.0058885687 -0.003817902
0001b0 25 a4 09 3c 0d ed 82 bc 3e 91 83 bb 8a df ef ba
       0.0084009515 -0.015982175 -0.004015117 -0.0018300873
0001c0 08 d4 a4 3b 6c e7 55 3b 60 89 f0 bb b5 7d eb ba
       0.005030159 0.003263916 -0.007340595 -0.0017966541
0001d0 46 f5 b5 3b fa 38 84 bb 54 ca 88 3b 7f f8 1d bc
       0.0055529205 -0.0040351124 0.00417451 -0.009641766
0001e0 aa 77 f8 bb c8 fb 8e bb b5 69 01 bb 27 3c ec bb
       -0.0075826244 -0.0043635108 -0.0019746844 -0.007209319
0001f0 26 79 a9 bb 14 ec 72 bc d3 69 3d bc 3f ad 29 bc
       -0.0051719127 -0.014826793 -0.011560875 -0.0103562465

tfl.pseudo_qconst i1 [80, 128]
000000 00 31 00 53 97 00 00 a0 d5 9a 00 00 32 00 00 44
       0 49 0 83 -105 0 0 -96 -43 -102 0 0 50 0 0 68
000010 00 6f b5 3a df b7 33 4b 32 00 d2 00 92 c8 00 c4
       0 111 -75 58 -33 -73 51 75 50 0 -46 0 -110 -56 0 -60
000020 96 31 5e 00 00 4d 60 00 00 5a 00 65 00 00 00 00
       -106 49 94 0 0 77 96 0 0 90 0 101 0 0 0 0
000030 cc 8b 37 38 00 41 6f 58 d0 2c cc 97 c5 aa 63 36
       -52 -117 55 56 0 65 111 88 -48 44 -52 -105 -59 -86 99 54
000040 5d 00 54 96 00 b6 7f b2 00 4e 33 6d 99 a8 a6 5b
       93 0 84 -106 0 -74 127 -78 0 78 51 109 -103 -88 -90 91
000050 d1 2b 00 96 6f 00 00 00 aa 7a 4d 00 cc 00 bc a4
       -47 43 0 -106 111 0 0 0 -86 122 77 0 -52 0 -68 -92
000060 00 00 2f 3d de 95 3d a1 00 2f 3a 5b 69 00 9b b7
       0 0 47 61 -34 -107 61 -95 0 47 58 91 105 0 -101 -73
000070 00 6b 00 00 00 61 00 00 57 b4 36 c3 94 9c c2 c3
       0 107 0 0 0 97 0 0 87 -76 54 -61 -108 -100 -62 -61
000080 ae cf 00 00 c6 ad 7e 00 8d 83 31 33 50 00 73 c2
       -82 -49 0 0 -58 -83 126 0 -115 -125 49 51 80 0 115 -62
000090 00 00 a3 00 c4 b7 00 00 00 c6 cb 41 57 a8 65 31
       0 0 -93 0 -60 -73 0 0 0 -58 -53 65 87 -88 101 49
0000a0 00 a5 d0 00 00 7f 00 00 b9 00 83 b7 61 a4 d8 00
       0 -91 -48 0 0 127 0 0 -71 0 -125 -73 97 -92 -40 0
0000b0 00 8f a0 83 00 87 00 00 8d 91 7b 43 a1 00 00 00
       0 -113 -96 -125 0 -121 0 0 -115 -111 123 67 -95 0 0 0
0000c0 c6 00 cf 00 3f 00 d6 bf 00 a5 b3 00 53 74 00 89
       -58 0 -49 0 63 0 -42 -65 0 -91 -77 0 83 116 0 -119
0000d0 6e 68 6b db 76 46 88 00 00 00 8e 77 73 60 68 a2
       110 104 107 -37 118 70 -120 0 0 0 -114 119 115 96 104 -94
0000e0 00 ca 00 00 c4 ca 52 7e 38 62 7b a0 aa 6b 69 3c
       0 -54 0 0 -60 -54 82 126 56 98 123 -96 -86 107 105 60
0000f0 c9 ce 00 5e ae 00 43 5a a8 00 88 00 00 00 00 66
       -55 -50 0 94 -82 0 67 90 -88 0 -120 0 0 0 0 102

tfl.pseudo_qconst1 i1 [128, 256]
000000 00 33 60 bd 00 00 b4 00 8f cd 00 bc 00 a3 00 99
       0 51 96 -67 0 0 -76 0 -113 -51 0 -68 0 -93 0 -103
000010 bd 2f 30 00 aa 3f 9f 8e 00 3f 00 ab 00 91 49 99
       -67 47 48 0 -86 63 -97 -114 0 63 0 -85 0 -111 73 -103
000020 d3 94 81 4c 00 aa 99 ce a7 3b 00 2c 00 91 97 91
       -45 -108 -127 76 0 -86 -103 -50 -89 59 0 44 0 -111 -105 -111
000030 ca 57 00 46 38 00 67 00 00 ac 83 00 43 be 00 00
       -54 87 0 70 56 0 103 0 0 -84 -125 0 67 -66 0 0
000040 00 00 92 38 88 45 57 6b aa b8 00 b2 00 c3 2e 60
       0 0 -110 56 -120 69 87 107 -86 -72 0 -78 0 -61 46 96
000050 00 00 8f 00 56 00 b1 5a 00 5f c3 3b 00 00 ac b2
       0 0 -113 0 86 0 -79 90 0 95 -61 59 0 0 -84 -78
000060 00 00 00 00 00 90 d0 85 00 00 33 3e 00 bf 00 92
       0 0 0 0 0 -112 -48 -123 0 0 51 62 0 -65 0 -110
000070 00 49 00 00 99 af a1 cf 98 00 92 c2 00 00 00 00
       0 73 0 0 -103 -81 -95 -49 -104 0 -110 -62 0 0 0 0
000080 00 00 d6 42 00 95 56 00 43 32 af 3b ac 00 2f 00
       0 0 -42 66 0 -107 86 0 67 50 -81 59 -84 0 47 0
000090 b1 85 00 00 00 cb 00 b2 00 00 00 00 a0 00 2f 00
       -79 -123 0 0 0 -53 0 -78 0 0 0 0 -96 0 47 0
0000a0 4a 3e 00 00 47 5e 00 ce d4 5e 5a 3a ae 38 57 5c
       74 62 0 0 71 94 0 -50 -44 94 90 58 -82 56 87 92
0000b0 97 00 00 00 c4 00 bc a7 47 c8 00 a7 a5 64 b2 00
       -105 0 0 0 -60 0 -68 -89 71 -56 0 -89 -91 100 -78 0
0000c0 b2 00 00 35 ad 73 00 a9 00 44 62 c1 2b 58 ad 00
       -78 0 0 53 -83 115 0 -87 0 68 98 -63 43 88 -83 0
0000d0 4c 4f c6 00 98 35 b4 00 3f c6 00 00 b3 d1 00 69
       76 79 -58 0 -104 53 -76 0 63 -58 0 0 -77 -47 0 105
0000e0 60 ac 00 45 3c 00 3c 00 00 a9 af ce a5 3c 00 48
       96 -84 0 69 60 0 60 0 0 -87 -81 -50 -91 60 0 72
0000f0 55 2c cd 00 d6 72 59 96 2a 00 00 00 00 a5 4b 00
       85 44 -51 0 -42 114 89 -106 42 0 0 0 0 -91 75 0

sequential/dense/MatMul i1 [256, 100]
000000 9e 00 a8 61 00 a3 66 00 3d 00 be 9c 5d 68 50 00
       -98 0 -88 97 0 -93 102 0 61 0 -66 -100 93 104 80 0
000010 37 00 68 00 00 00 c5 4a c2 00 00 00 56 ab 00 cf
       55 0 104 0 0 0 -59 74 -62 0 0 0 86 -85 0 -49
000020 00 d7 94 81 a3 36 00 96 3d 00 00 00 52 00 d0 48
       0 -41 -108 -127 -93 54 0 -106 61 0 0 0 82 0 -48 72
000030 00 5c 00 00 00 46 a4 00 00 63 6a 66 6c ac 00 00
       0 92 0 0 0 70 -92 0 0 99 106 102 108 -84 0 0
000040 ba 00 33 69 00 36 00 9b 64 00 4d 4b 00 00 00 cc
       -70 0 51 105 0 54 0 -101 100 0 77 75 0 0 0 -52
000050 00 00 c7 64 9d 90 58 29 00 00 a2 00 00 a6 00 00
       0 0 -57 100 -99 -112 88 41 0 0 -94 0 0 -90 0 0
000060 00 8e 54 97 db 78 43 2c 8c 00 3e 4c 34 00 55 00
       0 -114 84 -105 -37 120 67 44 -116 0 62 76 52 0 85 0
000070 00 00 3b c6 00 46 b8 a9 cc b1 cc 00 59 00 bd 5e
       0 0 59 -58 0 70 -72 -87 -52 -79 -52 0 89 0 -67 94
000080 00 5e 00 c7 71 00 8b 00 7f 00 a4 00 2d 00 8b 6a
       0 94 0 -57 113 0 -117 0 127 0 -92 0 45 0 -117 106
000090 ce 00 00 00 00 00 53 70 bf af c5 39 b0 3a aa 00
       -50 0 0 0 0 0 83 112 -65 -81 -59 57 -80 58 -86 0
0000a0 b1 a0 ba 00 00 d0 7f 00 00 5b 00 6f 00 66 46 d1
       -79 -96 -70 0 0 -48 127 0 0 91 0 111 0 102 70 -47
0000b0 00 00 5c 43 00 00 a8 38 00 59 00 00 c6 00 00 c2
       0 0 92 67 0 0 -88 56 0 89 0 0 -58 0 0 -62
0000c0 a8 b4 32 00 00 5e 00 3b 00 59 00 ba cf 00 00 00
       -88 -76 50 0 0 94 0 59 0 89 0 -70 -49 0 0 0
0000d0 61 ca 5a 62 a8 b8 5d 00 43 00 54 ba ce 00 64 61
       97 -54 90 98 -88 -72 93 0 67 0 84 -70 -50 0 100 97
0000e0 35 00 a6 98 bf 00 7f 49 c2 00 c6 ca bc 3d 00 38
       53 0 -90 -104 -65 0 127 73 -62 0 -58 -54 -68 61 0 56
0000f0 cb af 60 00 69 00 00 ac 00 64 cc a9 9f aa 41 af
       -53 -81 96 0 105 0 0 -84 0 100 -52 -87 -97 -86 65 -81
